allfile: 345
light_bulb
_________________________________________________________________
Layer (type)                 Output Shape              Param #   
=================================================================
conv2d_27 (Conv2D)           (None, 28, 28, 16)        160       
_________________________________________________________________
max_pooling2d_27 (MaxPooling (None, 14, 14, 16)        0         
_________________________________________________________________
conv2d_28 (Conv2D)           (None, 14, 14, 32)        4640      
_________________________________________________________________
max_pooling2d_28 (MaxPooling (None, 7, 7, 32)          0         
_________________________________________________________________
conv2d_29 (Conv2D)           (None, 7, 7, 64)          18496     
_________________________________________________________________
max_pooling2d_29 (MaxPooling (None, 3, 3, 64)          0         
_________________________________________________________________
flatten_9 (Flatten)          (None, 576)               0         
_________________________________________________________________
dense_18 (Dense)             (None, 128)               73856     
_________________________________________________________________
dense_19 (Dense)             (None, 345)               44505     
=================================================================
Total params: 141,657
Trainable params: 141,657
Non-trainable params: 0
_________________________________________________________________
None
Train on 124200 samples, validate on 13800 samples
Epoch 1/5
 - 6s - loss: 4.2056 - top_k_categorical_accuracy: 0.3603 - val_loss: 3.3865 - val_top_k_categorical_accuracy: 0.5420
…
